model_target.pth (torch_old, 48030 bytes, 6 tensors)

fc1.weight f4 [64, 148]
00000000: a629 00bb b3c4 3ebe f0d3 10be 1ad0 90bc
00000010: 3ed5 0ebd 9f12 0dbe 6bcb 27be 2b2d c4bc
00000020: 3b7f efbe 7b9e a5be 033d 85bc d2db 44b9
00000030: ad69 4fbe 72c4 1cbd 9c40 00be 5c7b cebd
00000040: d750 913d b17b 2f3c b522 56bc f2c5 c9bd
00000050: ada7 47bc 8ec6 e2bc 25ab ac3c 86f9 0f3d
00000060: 5f97 ecbd feaf 303c 69a1 a03b dfa5 04be
00000070: de40 afbc 03f6 a53c c6da 1abe 988f cc3d
00000080: ae91 0d3e 2820 093e 57c3 a33d c3dd 903c
00000090: 1771 473c 6488 db3d d3de 913d e09a aabd
000000a0: 313d 9d3c 8734 88bc 3f8b 52be 032d 21bb
000000b0: 95d9 9cbe 89d3 82bf 49ad 84bf 3b41 abbd
000000c0: 0b04 4cbe fb11 bdbd 83ad 853d e96f f73c
000000d0: 0ab7 463b b4d9 89bd 9956 933c 4f58 ab3e
000000e0: 59b7 5bbc d621 47be df26 65be 7a4e 86bd
000000f0: e9b0 55bc 6091 603e ac09 d0bd ce75 59bd
00000100: 78d0 743c ffd7 f23c b015 763e 2def 153d
00000110: c6b1 873a df5e 6d3d b0b0 123e 19dd 9bbe
00000120: 2557 bcbc 5217 7cbc 1fd6 92be 9161 c93d
00000130: 4e1b 9c3d d2b9 883e c08c bc3e f34f 473f
00000140: 4f56 e8bf 39c1 edbf 99e5 0fc0 338a 3fc0
00000150: 2fda 81be b0da d5bc e396 c63d f421 d03d
00000160: c45c a23e 2964 4abe 8a34 a9bd 16f7 333e
00000170: 7dd1 7c3e 446d c03e c140 c2bd 6b2e 25be
00000180: a52d 39be d581 c93d e9a0 7a3e 8488 b5bd
00000190: d48a 1ebe 8d4d 85be 8cfe 16be d216 c9bd
000001a0: 08f2 0fbe 3348 90bd 1a63 503b efde a13d
000001b0: 6027 7fbe b4d1 8abe 86c7 a6bd 3849 37be
000001c0: 0d14 b03d 94ff a0bd 0699 07be 76af 88be
000001d0: 7deb 76be 1eec 7b3d 91ab e13d 6cd3 8a3e
000001e0: 9e1e 053e 1a44 ecbd fd35 403d 7d25 48be
000001f0: 4122 8bbe 4c35 eabe 652a b1bd 09a8 cabd
00000200: 28b2 d3bd 3560 59be 59e0 b3bd 5e7c a1be
00000210: 1259 393d 33bd 633d 7997 8fbd 74aa 9cbd
00000220: b1b5 9dbe 7736 fcbd 4cc3 383d d1e4 783e
00000230: c59f 713e 5b78 78be 775e 583d 5118 9cbc
00000240: 590d 6cbd 9143 eebd a50e 863f c4c9 b43e
00000250: 836d 3f3e 03d0 00bf 32f3 8ebe e416 44be
00000260: 65bf 79bc 9f1d 13be 6801 44bd 459f aabd
00000270: fd6b 83be 885c 10be 814b 8cbe 8da4 20be
00000280: 1b7a 0ebe 9431 d7bd c3f9 50be 802a a7b9
00000290: e10c d4be 22c3 ecbd 5688 51bd 00e8 fcbd
000002a0: 3eb2 67bd fcc7 9ebe ddda 31be a1f1 7dbe
000002b0: c24f 6d3d f4c1 913d 1b13 fcbd 13d2 71be
000002c0: e72e cebe eebb 04be ca55 7abc 062c 63be
000002d0: f773 90be f34c 65be 6a11 b3bd b7bb a2bd
000002e0: 51bf 16bd 1141 58bc 98b2 c8bc 5ddd adbe
000002f0: b338 5cbe c9d0 a53d 0d3b 92be 3cf4 ea3b
00000300: 827d 673d ba31 9dbe 3738 fcbd 8896 3fbe
00000310: bc1a a8be 8594 a3bd 084d 48be 64b6 d73b
00000320: 17cc 39be eb54 abbe 6cae 113e c92c 41be
00000330: 180d b6bd 0224 c83c f2b2 a9be adfe 9ebe
00000340: 2075 a43c 3de1 1fbd 707e 52be 53c9 863d
00000350: 6b3f 64be 70a7 8bbe 1c61 c4bd 7a8f 9d3d
00000360: 2512 03bf c392 3ebe 1317 98be 652b 043b
00000370: 7edc debd 1a83 30bb 5f41 e4bd d5cd d7bd
00000380: 0db5 6fbe 40ad b6bc 2137 4b3d 37a2 b1be
00000390: ecfd 073c e723 d73d 4bac bdbe 76fa 123e
000003a0: 2bef d639 bef0 e7be 3793 10be a30e b9bd
000003b0: db5f 863e 3f09 d2be a2e3 2a3d 0ffd 38be
000003c0: f0da 943c 94b5 243e e62f d5bd 575d c3be
000003d0: b3c5 84be 0061 53bd 00ef c93e dc86 eabe
000003e0: c2b8 54bd e55a e33d 7aaa bcbe 5572 633a
000003f0: 9e03 7bbe 3968 02be bb99 7dbe 6ee0 6cbe
-0.0019556074 -0.18629722 -0.14143348 -0.017677356 -0.034871332 -0.13776635 -0.16386192 -0.023947319
-0.46776757 -0.32347474 -0.016264444 -0.00018773906 -0.20255156 -0.038273282 -0.12524647 -0.10082123
0.07095497 0.010710643 -0.013069798 -0.09852208 -0.012185973 -0.027682569 0.021077702 0.035150073
-0.11552309 0.010784147 0.004902054 -0.129539 -0.021393236 0.02025891 -0.15122518 0.09988326
0.13825104 0.13391173 0.079962425 0.01768387 0.012172959 0.10719374 0.071225785 -0.08330321
0.019194217 -0.01662661 -0.2056093 -0.002459348 -0.30634752 -1.0220805 -1.0365382 -0.08362051
-0.19923417 -0.09231945 0.06527235 0.03020473 0.0030321502 -0.06730977 0.017985629 0.33465812
-0.013410413 -0.19446501 -0.2237811 -0.06557937 -0.013042667 0.21930456 -0.10158095 -0.053090863
0.014942281 0.02964401 0.2403171 0.03660505 0.0010352663 0.057951804 0.14325213 -0.30442122
-0.022990773 -0.015386419 -0.28678986 0.098330624 0.076223955 0.2670427 0.36826134 0.7785637
-1.8151339 -1.8574592 -2.2483885 -2.99281 -0.25361773 -0.026105255 0.09696748 0.10162726
0.317114 -0.1976477 -0.08261974 0.17574725 0.24689288 0.37583363 -0.09485007 -0.16130988
-0.18083818 0.098392166 0.24475445 -0.08863929 -0.15482646 -0.2603573 -0.1474554 -0.09818806
-0.14057171 -0.07045021 0.003179735 0.07903849 -0.24917364 -0.27113116 -0.08143525 -0.17899024
0.085975744 -0.07861248 -0.13241968 -0.26696366 -0.24113269 0.061504476 0.11019052 0.27114427
0.12999961 -0.11536427 0.046926487 -0.1954555 -0.2717457 -0.45743787 -0.08650664 -0.098953314
-0.10336715 -0.21228106 -0.08783025 -0.31540197 0.04525096 0.055600356 -0.07011313 -0.07649699
-0.30802682 -0.12315076 0.045108125 0.24306037 0.23596103 -0.24264662 0.052824464 -0.019054564
-0.057629917 -0.11633981 1.0473219 0.35310185 0.18694119 -0.503174 -0.27919918 -0.19149357
-0.015243386 -0.14366768 -0.047852904 -0.083311595 -0.25668326 -0.14097798 -0.27401355 -0.15687771
-0.13913767 -0.10507503 -0.20407777 -0.00031884387 -0.41416076 -0.11560656 -0.05115541 -0.12348938
-0.05656647 -0.3101195 -0.17368646 -0.24799205 0.05793739 0.07117072 -0.123083316 -0.23615293
-0.4027016 -0.12962314 -0.015279243 -0.22184762 -0.28213474 -0.22392635 -0.08743556 -0.0794596
-0.036803547 -0.013199107 -0.024499223 -0.3395795 -0.21506004 0.08096463 -0.28560677 0.0071702283
0.056516178 -0.30702 -0.1231541 -0.18709767 -0.32832897 -0.07987312 -0.19560635 0.006583022
-0.1814426 -0.33463225 0.14226693 -0.1886474 -0.08889216 0.024431232 -0.33144337 -0.31053677
0.02007538 -0.039033163 -0.20556045 0.06581368 -0.22289817 -0.27276182 -0.09588835 0.076933816
-0.5119956 -0.18610673 -0.29705104 0.0020167467 -0.10881899 -0.0026933611 -0.11145281 -0.10537306
-0.23408909 -0.022299409 0.049613122 -0.34694073 0.008300286 0.10504895 -0.37045512 0.14353356
0.00040995455 -0.4530086 -0.14118658 -0.09035995 0.26245007 -0.4102268 0.041720994 -0.18065284
0.018170804 0.16084892 -0.104095265 -0.3815715 -0.25932083 -0.05160618 0.39440155 -0.45806015
-0.05193401 0.11101321 -0.36848813 0.00086763996 -0.24513099 -0.1273507 -0.24765675 -0.23132488

fc1.bias f4 [64]
00000000: 966f 15bf 8433 90bd b39d cabe b567 e7be
00000010: 3aa0 d9bd e7e6 84bd 347b 06be 6fa6 bdbe
00000020: 85f5 36be 85e7 1bbf 49a7 45be 20c9 eb3c
00000030: 12ad 62be 2377 6b3e 41f2 5cbe c991 4cbe
00000040: e649 cc3e f589 b7be cf81 1dbe 9411 c03c
00000050: b8fa c93d 6e8e fabc 911a 1bbe 7247 c6be
00000060: f868 19be d450 d7bd c81f f53d e1c9 02bd
00000070: ee03 29bf cb6c 54bc c1da 40be 12bf 14bf
00000080: 1a0c 2fbe ad97 0cbe 9008 d7bd 4f9b 0ebe
00000090: 99b0 9bbe 5c02 f8be b74d 43be 568f e8be
000000a0: d932 b5be 0396 d1bc 0fcf 18bc 7b88 1fbf
000000b0: 0a9c 5ebe f879 8fbd fa78 b5be f2ae 7fbe
000000c0: 9878 19be d559 f9bd 9b73 e8be e1b0 8ebe
000000d0: b6da ebbd 46ee 693d 464d b8bc 5cff 19be
000000e0: 2a58 be3c d14c e6be d847 d2be 6708 5ebd
000000f0: 82db e2be 9acd 2ebe 7d76 53bd 747c 44bd
-0.5837339 -0.07041076 -0.3957344 -0.4519631 -0.10626264 -0.064893536 -0.13132936 -0.3704104
-0.17867096 -0.60900146 -0.19302095 0.028782427 -0.22136334 0.22994666 -0.21576788 -0.19977488
0.3990013 -0.3584744 -0.1538155 0.023445882 0.09862274 -0.030585494 -0.15146853 -0.38726383
-0.14981449 -0.105134636 0.119689524 -0.031930808 -0.6602162 -0.012965391 -0.18833448 -0.5810405
-0.1709446 -0.13729735 -0.1049968 -0.13926433 -0.3040817 -0.484393 -0.19072615 -0.45421857
-0.35390356 -0.025584226 -0.00932671 -0.6231763 -0.21739212 -0.070056856 -0.3544386 -0.2496908
-0.14987409 -0.12175337 -0.454007 -0.27869323 -0.11516325 0.057112 -0.022497784 -0.15038818
0.0232354 -0.4498048 -0.41070437 -0.05420723 -0.44308096 -0.17070618 -0.05162667 -0.04797025

fc2.weight f4 [32, 64]
00000000: 6618 b93d e5f7 7abd c53b 1bbe 1d16 1fbe
00000010: 61b2 66bd b3ac ba3d 30fe 3ebd 0d93 033e
00000020: 8f0c 81be 2738 003e 8742 f83d 4807 0bbe
00000030: 8870 293d 4f93 babd 55c3 87bd 1427 073d
00000040: 891e 37be 0244 df3d 2336 443c 3140 09be
00000050: 3a44 c13a 18dc 28bc 92e1 39be b680 a53c
00000060: 55bd 083e 96e5 2a3d a356 023e afcc 0a3e
00000070: 40b5 0abd 9d45 7ebc 62ae bcbd 99cd ae3a
00000080: 8ecb 043c 65b2 adbd 02fd e33c 6556 92bd
00000090: 4238 d13b 208c 99bd a024 60be edf0 3bbd
000000a0: ce4d edbd 140d 6fbd eca7 eb3c f25a b8be
000000b0: a3f2 cbbd 3d71 6bbc 117b 073e 5a69 083e
000000c0: a811 a33e f898 9fba 9d0b cfbd 0006 3fbe
000000d0: 444a 95bd bc41 8cbd eb1c d1bb 7938 33bc
000000e0: b24f d13c cb74 8abd e4cf c8bc 6d8c 25bd
000000f0: 5c96 b2bc d1f8 9ebd 2125 873e 60a9 443e
00000100: 2e56 273e a4a6 9fbc 7ac0 d7bc 90b9 663e
00000110: 3b80 47be 3714 3bbe d2a1 7bbd ce56 8fbd
00000120: 82a0 213d 1ef6 19be c32b 2cbe 759d 29bd
00000130: 190e 04bd 7d71 fd3d 3e6b ecbc ff85 ed3d
00000140: 916b 1ebd 6e0d d0bc e54d 97be a785 81bd
00000150: 57f8 05be 1e1d 6cbd a2e7 543c bf4b fc3d
00000160: 12d6 1b3e 39b6 4abe 29c5 4fbe 2010 67bd
00000170: e874 823e 69b0 1fbe 5978 293d f5ea 99bd
00000180: 6f3b 013e e07d 8f3d e1c1 2ebe b9e7 fe3c
00000190: 5842 bb3d 768a 973e 8deb 1bbe b698 f2bc
000001a0: 5d1f d6bc 9065 40be 5435 343d fcfc 623e
000001b0: bffc 2cbd 1dc3 25bc a465 96bd 9ba5 43bd
000001c0: 8f8d ab3c 9da0 12bf 1f11 6e3d 5b0e f0bd
000001d0: b4ca 7cbd 10fc c9bd aa3f d4bc 2a3a fcbd
000001e0: c9c9 58be 62f1 0dbe eb43 a2be 139a 7c3e
000001f0: 39b5 37bf bbf1 eebd a061 b2be d4a2 c9bd
00000200: d344 c63d 03d4 2a3d 8aa8 593e 1f97 8b3e
00000210: 2c72 a5bd 7f5c 82be cfa4 57be 2213 0abe
00000220: ac34 a43d fc15 9dba aafb 7bbe c544 3dbd
00000230: 19d4 d4bd 4a2f eebe 8e8a 883b 1ac6 433d
00000240: ca6b a53e 6c42 07be 56aa 3dbe b0eb 9abe
00000250: 5983 20bf 45d0 b7be c582 163e 3551 c6bd
00000260: f332 4dbe ce20 0abe 2940 7bbe ca3e 05be
00000270: f426 8bbd 0e67 bfbe 2016 66be ec78 0638
00000280: de9b 513e 1881 94bd 1164 92bd 9333 acbd
00000290: 4fbc 093e 702f babe 49ff b63d 6356 c9bc
000002a0: 5bbe e53a 67e5 56be b61a 203d 95c3 31bd
000002b0: 9483 49bd f3ba 44bd c4dd dbbd 4cf0 dcbe
000002c0: 36cc f1bc 64ee b1be 1ee8 b4be 0a74 aa3d
000002d0: c85d 4ebe ecbe 8ebe 02d0 803d 155f 613c
000002e0: 5643 2bbe 14dc 61bc bb55 a03c 412b c0be
000002f0: e2a8 b5bd 4e50 69be df5a d53c 5042 16be
00000300: f788 30bd c434 4e3d 8bfd 983d a286 41bd
00000310: 0630 0dbc 960c 8f3d eb7b 8f3d 31bf 5e3c
00000320: 137d a33d 6187 583d dd21 2d3d 6c4a dbbd
00000330: 0509 a93c 5053 8cbd 68ce 61bd 8bf2 a1bd
00000340: f8ba 0bbe 2ab6 2e3e 00d9 dbbd 1319 edbd
00000350: 19b6 92bc 2c84 9a3d e14d 50bd fd11 3dbe
00000360: d4bc e13c 98fe 3b3d 0fd9 f73d 7aa0 13be
00000370: 29cd a33c 7742 5cbd cd4e 74bd da40 76bc
00000380: 50f0 233d 7f8f e4bc f06f d83d d765 3ebc
00000390: e8fa 1dbd ae4a 92bc ecf4 653d f2ea 833d
000003a0: 23d1 06bd 1107 a9bc fc77 01be d5d6 79bd
000003b0: f43f 19be 90c4 7e3b 326b 97bd b4e6 693d
000003c0: 8324 efbd 3810 11bd 82bc 0ebe 4e7d 4cbd
000003d0: b3ca fc3c ae4d 353b d186 15be f9fb 07be
000003e0: bda6 c9bd 36c5 a4bd 0a8b 68bd 69ef c63d
000003f0: 732e 7cbd 06e3 92bc 9662 ab3d 4a4d ffbd
0.09037857 -0.061271567 -0.15159519 -0.1553578 -0.05632246 0.09114971 -0.04662913 0.12849064
-0.25204894 0.1252142 0.12122064 -0.13576996 0.041367084 -0.09110128 -0.066290535 0.032996252
-0.17882742 0.10901643 0.011975798 -0.13403393 0.0014745065 -0.010306381 -0.18152454 0.020202976
0.13353474 0.041722856 0.12728362 0.13554643 -0.03386426 -0.015519527 -0.092129484 0.0013336419
0.008105172 -0.08481292 0.027830604 -0.07145385 0.0063848803 -0.0749743 -0.21888971 -0.04588406
-0.11587106 -0.05836208 0.028766595 -0.36006886 -0.09958389 -0.01437026 0.1323054 0.13321438
0.31849408 -0.0012176326 -0.10109637 -0.18654633 -0.07289556 -0.06848475 -0.006381621 -0.010938757
0.025550697 -0.06760558 -0.024513192 -0.040417124 -0.021800213 -0.07762302 0.26395515 0.19205236
0.16341469 -0.01948864 -0.026336897 0.22531724 -0.1948251 -0.1826943 -0.06143362 -0.069989786
0.039459713 -0.15035293 -0.16813569 -0.04140993 -0.032240007 0.12375162 -0.02885973 0.11597823
-0.038676802 -0.025397029 -0.29551616 -0.0632432 -0.13083015 -0.057644956 0.012994679 0.12319135
0.1521838 -0.19796075 -0.20290054 -0.056411862 0.25479817 -0.15594639 0.041374538 -0.075155176
0.12620328 0.070064306 -0.17066146 0.031116353 0.091435134 0.29597825 -0.15226574 -0.029613834
-0.026138002 -0.18788743 0.04399617 0.22166818 -0.042233225 -0.010117319 -0.07343605 -0.047765356
0.020941524 -0.57276326 0.058121797 -0.11721488 -0.06171675 -0.0986253 -0.025909264 -0.123157814
-0.21170725 -0.13861611 -0.31692442 0.2466815 -0.717609 -0.116672 -0.34840107 -0.0984551
0.09681096 0.041706096 0.21255699 0.27263734 -0.08078417 -0.25461194 -0.21058963 -0.13483861
0.08017859 -0.0011984701 -0.24607721 -0.04620816 -0.10392017 -0.46520454 0.0041669076 0.047796346
0.323088 -0.13208932 -0.18522009 -0.3025794 -0.6270042 -0.35901085 0.14698322 -0.09683458
-0.20038967 -0.13489076 -0.24536194 -0.13012233 -0.06794539 -0.37383312 -0.22469378 3.2060707e-05
0.20469615 -0.07251185 -0.071479924 -0.084082745 0.1345074 -0.36364317 0.089354105 -0.024577325
0.0017528044 -0.20985948 0.039087974 -0.043399412 -0.04919775 -0.04802985 -0.10735658 -0.43152082
-0.02951632 -0.3475219 -0.3533334 0.08322914 -0.20152962 -0.27880037 0.06289674 0.0137555795
-0.16724905 -0.013785381 0.01957213 -0.37533 -0.088701025 -0.2278454 0.026044307 -0.14673734
-0.04309937 0.05034329 0.074702345 -0.047247536 -0.008617407 0.069848225 0.07006057 0.013595388
0.079828404 0.052863482 0.042268623 -0.10707554 0.020634184 -0.06851828 -0.055128485 -0.079075895
-0.13645542 0.17061678 -0.10734749 -0.11577048 -0.017909097 0.07544741 -0.05085552 -0.18463893
0.02755586 0.045897096 0.121019475 -0.14416686 0.019995289 -0.053774323 -0.059645463 -0.01503011
0.0400241 -0.027900456 0.105682254 -0.01162096 -0.03856936 -0.017857876 0.05614178 0.06441297
-0.032914292 -0.020633252 -0.12643427 -0.060995895 -0.14965802 0.0038874485 -0.07393493 0.05710478
-0.11676886 -0.035415858 -0.13939098 -0.049924187 0.030858373 0.002766471 -0.1460221 -0.13279714
-0.09846256 -0.080454275 -0.056773223 0.097136326 -0.061567735 -0.017930519 0.08368413 -0.124659136

fc2.bias f4 [32]
00000000: 1950 07be 5bbe 0b3f fa7e 513f 126d b43c
00000010: 6f4b d9be 7679 e83c 390e dc3e 1165 3f3f
00000020: 8e76 193f a216 8dbd af2c c7bd 8676 6bbe
00000030: e68c 473f e6f5 08be 65c6 b73e 3835 b63e
00000040: 99be 183d 5270 df3e 8060 acbd 4046 1d3f
00000050: 0cfd d13e 4681 8b3e e879 eb3e 8e9d c53e
00000060: c192 633d 1889 cd3e 9367 893e 6d1c 053f
00000070: a9b6 13be 7797 b1be c40f bfbe 9b7f 193f
-0.13214149 0.54587334 0.81834376 0.022024665 -0.42440364 0.02837823 0.429796 0.7476359
0.59946525 -0.068890825 -0.097253196 -0.22994432 0.7794937 -0.13375053 0.3589355 0.35587478
0.037291143 0.4364038 -0.084168434 0.6143532 0.41013372 0.27247065 0.45991445 0.38596767
0.055559877 0.40143657 0.26836833 0.519965 -0.14425148 -0.3468587 -0.37316716 0.59960335

fc3.weight f4 [4, 32]
00000000: 1d37 843d 94b8 283e 5674 923e 8c89 3abe
00000010: 16bf 46be 3846 16be 2f1b 613e 180d 6d3e
00000020: f597 013e e5fd 79bd 2088 b0bd 127a 5bbe
00000030: 201e 6b3e 6005 853d 90e6 353e d9b5 8e3e
00000040: e60b 14be 3765 833c cb13 f73c f1b3 813e
00000050: ceec 153e 5817 833d 8e30 093e edcd aa3d
00000060: 2f9a e33d bfc6 3ebb 4870 1b3e a57a 383e
00000070: f41e 5c3e fa83 1c3d a6b4 39be b2d9 853d
00000080: 05f4 88bc 2bb3 723d f290 8f3e 6e30 0abe
00000090: 832b ecbd ec98 cabb c549 2d3e 4ed5 633e
000000a0: 032d f03d 33c8 003e 4ab9 183e c238 1cbe
000000b0: 6464 683e c754 a03c fd4e e43d f584 553e
000000c0: 488d 2d3e d5f9 24bd f6aa 1c3d 0f3e 473e
000000d0: 87f0 393e 3651 893d 28db 093e 951f 053e
000000e0: 7bd1 143e 06ff 0c3e 09f5 113e 3978 473e
000000f0: d4d2 ac3e 4dae 3bbe b0ef c43d e4a2 093e
00000100: 11b6 043e bb5b 323e 7098 463e ca49 7cbd
00000110: a2f7 43bd 612b 3dbd 3f40 203e c816 7c3e
00000120: 4ca8 013e 63a2 3e3d 47ab b63d d7dd 7cbe
00000130: be2d 8f3e 2405 b73d 438d 043e b3a3 483e
00000140: 9d09 7abe da9e 923c 4dd7 12be 7956 163e
00000150: b432 8d3d aee4 883d 6ee4 453e be98 eb3d
00000160: ecc7 833d bf54 e23c 9e78 903d bd13 113e
00000170: ba94 823d e9b9 60bd 50af a7bc c21f 903e
00000180: f2e8 2ebd 8ea9 283d 0768 983e dd5e 7fbd
00000190: 0a08 08be 8f57 a63d 0ca6 113e ae6c 6c3e
000001a0: f53e 363e 6931 cabd a5e3 533e 8b20 bcbd
000001b0: 9c39 753e 8dd8 d4bd 9cdf e33c 006d f33d
000001c0: d030 7abe 2e7f 023e ff14 003e ca30 843e
000001d0: 80ee 233e 550e 7b3b 5176 0c3e e6b0 c03d
000001e0: 2a83 443e 92c1 083e 392c 123e 8a0c aa3d
000001f0: 1a54 a63e e40b 87be 21af d33d ef94 bb3d
0.064558245 0.16476661 0.28604382 -0.18216532 -0.19408831 -0.14675224 0.21983026 0.23149526
0.12655623 -0.06103315 -0.08619714 -0.21433285 0.2296071 0.06495166 0.17763734 0.27873114
-0.14457664 0.016039474 0.030160805 0.25332597 0.14641115 0.06400937 0.13397428 0.083400585
0.111133926 -0.002911016 0.1517955 0.18015535 0.21496183 0.0382118 -0.18135318 0.06535663
-0.01671792 0.0592529 0.28040272 -0.13495037 -0.11531737 -0.0061827805 0.16922672 0.22249338
0.11727335 0.1257637 0.14914432 -0.15256026 0.22694546 0.019571675 0.11147878 0.208515
0.16948426 -0.04027732 0.03824898 0.19457267 0.1815816 0.06704943 0.13462508 0.13000329
0.14533035 0.13769159 0.1425363 0.19479455 0.337546 -0.18328209 0.09616029 0.13441044
0.12960078 0.17417805 0.19394088 -0.06159381 -0.047843583 -0.046183947 0.15649508 0.24618065
0.12661856 0.046541583 0.08919387 -0.24694 0.27964586 0.08936527 0.12944512 0.19593696
-0.2441773 0.017898012 -0.14339943 0.14681424 0.068944365 0.06684242 0.1932542 0.11503743
0.064346164 0.0276283 0.07054256 0.14167686 0.063760236 -0.054864798 -0.020469338 0.2814923
-0.042702623 0.041177325 0.29766867 -0.062346328 -0.13284317 0.08122169 0.14223498 0.23088333
0.17797454 -0.098727055 0.20692308 -0.091858946 0.23947757 -0.10392866 0.027816586 0.118860245
-0.24432683 0.12743828 0.1250801 0.25818473 0.1600895 0.0038308103 0.13717009 0.09408741
0.1919066 0.13355091 0.14274682 0.08303173 0.3248604 -0.2637626 0.103361376 0.09159266

fc3.bias f4 [4]
00000000: d827 3f3f e875 273f cf18 3c3f df1b 583f
0.7467017 0.65414286 0.73475355 0.8441753
