model.pth (torch_old, 48030 bytes, 6 tensors)

fc1.weight f4 [64, 148]
000000 c7 54 1d bc ad 44 40 be 8e 05 1a be a0 11 9e bb
       -0.009602732 -0.18776198 -0.15041181 -0.0048238784
000010 13 59 34 bd 6d d6 09 be 4e 23 31 be a2 ac 42 bd
       -0.04403026 -0.13460703 -0.17298624 -0.047527917
000020 10 70 f6 be ab 51 a6 be ca c1 5d bc a8 d7 05 bc
       -0.48132372 -0.32484183 -0.013534972 -0.008169092
000030 f1 67 53 be c8 3c 18 bd 8e 7f fe bd 5b df e4 bd
       -0.20645119 -0.03716734 -0.12426673 -0.11175414
000040 d0 1d 98 3d 06 db 4a 3c 75 ae 8b bc 64 5d c4 bd
       0.07427561 0.012381321 -0.017050961 -0.09588125
000050 fe 5d c5 bc 7e eb f2 bc e5 a7 bb 3c ae f7 11 3d
       -0.02409267 -0.029653307 0.022907207 0.035636596
000060 41 7d db bd 01 7e 45 3c 82 54 e0 ba 3a 10 0d be
       -0.1071725 0.012053967 -0.0017115029 -0.13775721
000070 c8 6f f2 bc cb 0d 7d 3c 84 16 13 be fb fc a8 3d
       -0.029594317 0.015445183 -0.14364058 0.08251377
000080 f5 f1 04 3e df 42 09 3e ab 42 9a 3d 86 e9 61 3c
       0.12982924 0.13404416 0.07532247 0.0137885865
000090 2b df 24 3c e7 4a de 3d e9 ac a0 3d f5 5d ca bd
       0.010062973 0.1085413 0.0784548 -0.09881202
0000a0 8d 83 64 3c e5 37 9a bc 35 e7 55 be c9 5c 1d bb
       0.01394738 -0.01882548 -0.2088898 -0.0024011603
0000b0 03 aa a1 be 0c 50 84 bf b0 c9 85 bf 26 cf a8 bd
       -0.3157502 -1.0336928 -1.0452175 -0.082426354
0000c0 0e 4f 4f be 6c 03 c9 bd 97 3a 85 3d ae 5e ea 3c
       -0.20245 -0.09815106 0.06505316 0.0286096
0000d0 6d 3e 9d bb 59 0c 8b bd 6e a8 b6 3c 63 64 a7 3e
       -0.0047987015 -0.067894645 0.02229711 0.32693776
0000e0 33 59 9f bc 81 eb 43 be 40 0c 72 be 14 e4 7b bd
       -0.019451713 -0.19132806 -0.23637486 -0.06149681
0000f0 38 dd a0 bc 7c 04 5f 3e a7 52 c9 bd 25 a4 45 bd
       -0.019636735 0.21779054 -0.09830218 -0.048252244
000100 a1 fc 13 bb 33 da 8a 3c 9d a3 68 3e c8 bd 16 3d
       -0.0022580998 0.016949749 0.22718664 0.036802083
000110 99 c5 da bb a4 a7 68 3d 97 56 0d 3e 5c 41 98 be
       -0.0066763875 0.0568005 0.13802563 -0.29737365
000120 ae d5 81 bc 0d df 53 bc df ec 90 be 40 83 dd 3d
       -0.01584896 -0.012931597 -0.28305718 0.108160496
000130 87 34 7a 3d f8 30 83 3e 8d 9d bd 3e 0c 13 46 3f
       0.06108525 0.25623298 0.37034264 0.77372813
000140 ad 55 e8 bf eb 9c ee bf 7c cc 0f c0 bd 67 40 c0
       -1.8151146 -1.8641638 -2.2468557 -3.0063317
000150 a0 5a 8b be bd dc d8 bc 1a bb c2 3d 50 52 ed 3d
       -0.2721758 -0.026472444 0.09508343 0.115879655
000160 f6 43 9f 3e 39 f2 51 be 4f cb a2 bd f6 b1 35 3e
       0.31106538 -0.20502557 -0.07948934 0.17743668
000170 9a 03 76 3e 4a 55 bc 3e fb 42 b4 bd f8 19 33 be
       0.24024811 0.3678382 -0.08801838 -0.17490375
000180 19 92 38 be 95 5e b8 3d cf 19 77 3e e9 65 a9 bd
       -0.18024482 0.09002415 0.24130939 -0.08271391
000190 bc b6 34 be 5c 17 8e be e3 84 1f be 93 55 f1 bd
       -0.17647833 -0.27752197 -0.15578036 -0.117839
0001a0 43 c5 0b be 3e 79 b1 bd d3 1a 81 37 ce cf 93 3d
       -0.13649468 -0.08665703 1.539049e-05 0.0721737
0001b0 d9 43 81 be cd e1 8e be c0 93 a3 bd 77 00 2f be
       -0.25247076 -0.27906647 -0.079871655 -0.17090021
0001c0 ce 5c b4 3d ff 97 a9 bd 6b 89 1c be a8 12 89 be
       0.088067636 -0.08280944 -0.15286796 -0.26772046
0001d0 ec f0 70 be 02 ad 66 3d ce 45 c7 3d eb 80 8b 3e
       -0.23529404 0.056317337 0.09730111 0.27246794
0001e0 31 bc 07 3e 71 25 f4 bd 0d 11 2d 3d dd ac 45 be
       0.13255383 -0.11921204 0.04225259 -0.19304223
0001f0 b1 e5 8b be 75 32 eb be e5 c0 c4 bd f8 f3 bd bd
       -0.27323678 -0.45936933 -0.09607104 -0.09275049
000200 e4 6c f0 bd 27 7c 4c be 00 c9 c2 bd e3 33 9d be
       -0.11739519 -0.19969235 -0.09510994 -0.3070365
000210 c9 76 fa 3c 94 ae 6b 3d 7a 74 9c bd f1 66 96 bd
       0.03057422 0.057539538 -0.07639404 -0.07343853
000220 0a 2d 9b be 5b bd 00 be aa 7f 15 3d a6 88 71 3e
       -0.303078 -0.12572233 0.036498703 0.23587283
000230 12 94 72 3e 09 20 7f be 4b 8d 4f 3d ed 83 b0 bc
       0.23689297 -0.24914564 0.050671857 -0.021547282
000240 6c d7 65 bd 66 2a eb bd f4 c7 84 3f 7e 36 b7 3e
       -0.056113645 -0.11482696 1.0373521 0.35783762
000250 d6 6b 3f 3e 3e d1 00 bf 89 f1 8e be 1a 17 44 be
       0.1869348 -0.5031928 -0.27918652 -0.19149438
000260 b5 be 79 bc 8b 1d 13 be 45 01 44 bd 0b 9d aa bd
       -0.015243222 -0.14366738 -0.047852773 -0.08330735
000270 19 6c 83 be 4f 5d 10 be ca 4b 8c be e4 a2 20 be
       -0.2566841 -0.14098094 -0.27401572 -0.15687138
000280 35 7b 0e be fc 30 d7 bd b2 f9 50 be a2 2b a7 b9
       -0.13914187 -0.1050739 -0.20407751 -0.0003188523
000290 09 0d d4 be ce c3 ec bd 0f 87 51 bd c3 e8 fc bd
       -0.41416195 -0.11560784 -0.051154193 -0.12349083
0002a0 55 b3 67 bd 00 c9 9e be 5e db 31 be a2 f1 7d be
       -0.05656751 -0.31012726 -0.17368838 -0.24799207
0002b0 24 4d 6d 3d c4 bf 91 3d 34 13 fc bd a6 d1 71 be
       0.057934895 0.071166545 -0.1230835 -0.23615131
0002c0 bf 2c ce be e7 bb 04 be 4d 55 7a bc 9d 2b 63 be
       -0.40268514 -0.12962304 -0.015279126 -0.22184606
0002d0 be 72 90 be 80 4b 65 be f2 10 b3 bd b9 b9 a2 bd
       -0.2821254 -0.22392082 -0.087434664 -0.0794558
0002e0 1d bd 16 bd 41 42 58 bc 98 b2 c8 bc f3 dd ad be
       -0.036801446 -0.01319939 -0.024499223 -0.33958396
0002f0 e4 37 5c be 09 cf a5 3d 3a 3a 92 be c6 f1 ea 3b
       -0.21505696 0.080961294 -0.28560048 0.007169935
000300 82 7d 67 3d fa 30 9d be 74 37 fc bd d6 96 3f be
       0.056516178 -0.3070143 -0.12315264 -0.18709883
000310 ed 1a a8 be 1c 95 a3 bd bd 4c 48 be cf b4 d7 3b
       -0.32833043 -0.07987425 -0.19560523 0.0065828334
000320 da cb 39 be 2c 55 ab be 59 ad 11 3e 39 2c 41 be
       -0.1814417 -0.33463418 0.14226283 -0.18864526
000330 6b 0d b6 bd 3d 22 c8 3c d9 b2 a9 be cf fe 9e be
       -0.08889278 0.024430389 -0.33144262 -0.3105378
000340 a3 72 a4 3c 23 e1 1f bd 91 7f 52 be d4 c8 86 3d
       0.020074194 -0.039033066 -0.20556475 0.06581274
000350 01 3f 64 be 62 a7 8b be ac 61 c4 bd 16 8d 9d 3d
       -0.22289659 -0.2727614 -0.09588942 0.07692926
000360 44 12 03 bf 48 92 3e be 04 18 98 be ba 29 04 3b
       -0.51199746 -0.1861049 -0.29705822 0.0020166473
000370 7f da de bd 34 82 30 bb 28 41 e4 bd 86 ce d7 bd
       -0.108815186 -0.0026933076 -0.1114524 -0.10537438
000380 88 b4 6f be 36 ac b6 bc 70 36 4b 3d 3c a1 b1 be
       -0.23408711 -0.022298913 0.049612463 -0.34693325
000390 e4 fc 07 3c de 22 d7 3d d3 ac bd be 6f f8 12 3e
       0.00830004 0.10504697 -0.37045917 0.14352582
0003a0 54 ee d6 39 9e f1 e7 be 32 91 10 be 5c 0f b9 bd
       0.0004099483 -0.45301527 -0.14117888 -0.09036133
0003b0 88 5d 86 3e d5 07 d2 be d7 e1 2a 3d 7f fd 38 be
       0.26243234 -0.410216 0.041719284 -0.18065451
0003c0 ec da 94 3c 9f b3 24 3e e9 2f d5 bd ce 5c c3 be
       0.018170796 0.16084145 -0.10409529 -0.38156742
0003d0 3f c6 84 be 22 5f 53 bd a9 ec c9 3e 58 86 ea be
       -0.259325 -0.051604398 0.3943837 -0.4580562
0003e0 d1 b9 54 bd 47 58 e3 3d 06 ab bc be f9 6f 63 3a
       -0.05193502 0.11100822 -0.3684923 0.0008676048
0003f0 c2 03 7b be d7 68 02 be 3e 97 7d be 66 e0 6c be
       -0.24513152 -0.12735306 -0.24764726 -0.23132476

fc1.bias f4 [64]
000000 8b ce 16 bf 32 34 90 bd ca 99 ca be 2d f2 e9 be
       -0.5890891 -0.070412055 -0.39570457 -0.45692578
000010 ee f9 d6 bd 16 e8 84 bd fa 7a 06 be e4 a6 bd be
       -0.10496889 -0.064895794 -0.1313285 -0.3704139
000020 7b f5 36 be 1d 63 1b bf dc a7 45 be 85 c7 eb 3c
       -0.17867081 -0.6069811 -0.19302315 0.028781662
000030 8e ad 62 be 61 50 71 3e 16 f2 5c be db bc 4d be
       -0.22136518 0.23565818 -0.21576723 -0.20091574
000040 4a 1c cc 3e dd 8a b7 be d9 81 1d be d8 0f c0 3c
       0.39865333 -0.35848132 -0.15381564 0.023445055
000050 f0 f8 c9 3d 2e 8f fa bc 83 1a 1b be 58 48 c6 be
       0.09861934 -0.030585852 -0.15146832 -0.3872707
000060 77 68 19 be cf 51 d7 bd 10 1e f5 3d f8 c9 02 bd
       -0.14981256 -0.105136506 0.119686246 -0.031930894
000070 e6 e3 29 bf 07 ad 91 bc 4f db 40 be c9 19 15 bf
       -0.6636337 -0.017782701 -0.1883366 -0.5824247
000080 55 0c 2f be 5d 98 0c be eb 08 d7 bd 3f 9b 0e be
       -0.17094548 -0.13729997 -0.10499748 -0.13926409
000090 ba 51 9c be 1e 7d f7 be 81 4d 43 be 54 45 e8 be
       -0.30531102 -0.48337644 -0.19072534 -0.45365393
0000a0 8d a3 b5 be d9 96 d1 bc 0a 4a 25 bc fe 28 1e bf
       -0.35476342 -0.025584625 -0.010088453 -0.617813
0000b0 66 9b 5e be 72 7b 8f bd 81 8a b2 be 7e af 7f be
       -0.21738967 -0.07005967 -0.34871295 -0.24969289
0000c0 97 78 19 be 0c 59 f9 bd 24 74 e8 be 36 26 8e be
       -0.14987408 -0.121751875 -0.45401108 -0.27763528
0000d0 22 db eb bd 7f ae 7c 3d 51 4e b8 bc f4 fe 19 be
       -0.11516406 0.06168985 -0.022498282 -0.15038663
0000e0 5a 57 be 3c 29 4c e6 be 5f e6 d1 be 51 0a 45 bd
       0.023235012 -0.4497998 -0.40996072 -0.04810554
0000f0 6b 9b e2 be 11 ce 2e be 58 76 53 bd 04 7d 44 bd
       -0.442592 -0.17070796 -0.051626533 -0.047970787

fc2.weight f4 [32, 64]
000000 40 16 b9 3d f2 f6 7a bd e6 3b 1b be 0a 17 1f be
       0.09037447 -0.06127066 -0.15159568 -0.15536132
000010 f4 b1 66 bd bd ab ba 3d 9e fd 3e bd 08 92 03 3e
       -0.056322053 0.09114788 -0.046628587 0.12848675
000020 00 0d 81 be 45 36 00 3e d2 3f f8 3d d3 06 0b be
       -0.2520523 0.12520702 0.12121548 -0.13576822
000030 d6 6e 29 3d 0f 91 ba bd 40 c3 87 bd e5 24 07 3d
       0.041365467 -0.09109699 -0.06629038 0.03299417
000040 84 1e 37 be 0a 43 df 3d ea 34 44 3c 64 3f 09 be
       -0.17882735 0.109014586 0.011975506 -0.13403088
000050 12 44 c1 3a e6 da 28 bc 43 df 39 be 31 81 a5 3c
       0.0014745018 -0.010306096 -0.18151574 0.020203205
000060 50 bc 08 3e b1 e4 2a 3d 9b 54 02 3e c6 ca 0a 3e
       0.13353086 0.041722003 0.12727587 0.13553914
000070 ea b4 0a bd 9c 46 7e bc 77 af bc bd d1 cb ae 3a
       -0.03386394 -0.015519764 -0.09213155 0.0013335889
000080 d4 ca 04 3c 81 b3 ad bd fb fa e3 3c af 54 92 bd
       0.008104999 -0.08481503 0.027829638 -0.07145058
000090 e4 36 d1 3b d3 8b 99 bd 24 24 60 be 1b f1 3b bd
       0.0063847173 -0.074973725 -0.21888787 -0.045884233
0000a0 2f 4b ed bd ac 0d 6f bd 39 a6 eb 3c 58 5b b8 be
       -0.11586606 -0.058362648 0.028765785 -0.3600719
0000b0 46 f2 cb bd dc 70 6b bc dc 7b 07 3e 96 69 08 3e
       -0.09958319 -0.0143701695 0.13230842 0.13321528
0000c0 02 13 a3 3e de 96 9f ba 3e 0c cf bd 1a 06 3f be
       0.3185044 -0.0012175699 -0.10109757 -0.18654671
0000d0 a8 4a 95 bd b2 40 8c bd 47 1d d1 bb 8f 37 33 bc
       -0.0728963 -0.06848277 -0.006381664 -0.010938539
0000e0 f1 4d d1 3c ee 75 8a bd 70 cf c8 bc 5b 8b 25 bd
       0.02554986 -0.067607746 -0.024512976 -0.040416103
0000f0 97 94 b2 bc 5b f9 9e bd 75 25 87 3e a9 a9 44 3e
       -0.021799369 -0.077624045 0.26395765 0.19205345
000100 ba 93 32 3e 00 a5 9f bc e9 2b bc bc 65 c5 61 3e
       0.17439166 -0.019487858 -0.022970157 0.22047956
000110 85 94 3b be 3d 13 3b be 27 a0 7b bd cc 55 8f bd
       -0.18318374 -0.18269058 -0.06143203 -0.06998786
000120 37 9e 21 3d 5b 44 19 be 96 29 2c be a6 9c 29 bd
       0.039457526 -0.14967482 -0.16812739 -0.041409157
000130 03 0d 04 bd 1c 7f ee 3d ea 6b ec bc 51 26 fe 3d
       -0.03223897 0.11645338 -0.028860051 0.12409652
000140 5b ae 0a bd 08 0e d0 bc ce 4c 97 be ec 83 81 bd
       -0.033857685 -0.025397316 -0.29550785 -0.0632399
000150 8f f6 05 be b0 1d 6c bd b5 e8 54 3c fa 4a fc 3d
       -0.13082336 -0.0576455 0.012994935 0.12318988
000160 ad d5 1b 3e b3 b3 4a be 4a c4 4f be f2 0e 67 bd
       0.1521823 -0.19795112 -0.20289722 -0.056410737
000170 61 bd 83 3e 66 b0 1f be 2a 78 29 3d 9d 81 66 bd
       0.25730422 -0.15594634 0.041374363 -0.056275953
000180 e1 39 01 3e dd 7d 8f 3d b4 bf 2e be 0e e5 fe 3c
       0.12619735 0.070064284 -0.17065316 0.031115081
000190 46 23 c1 3d cc 49 98 3e 1d ea 1b be b4 27 05 bd
       0.09430556 0.29743803 -0.15226026 -0.032508567
0001a0 d6 c9 ac bc 65 63 40 be c4 7a 27 3d 0e 8e 65 3e
       -0.021092337 -0.18787916 0.040888563 0.22417471
0001b0 4f fa 2c bd 3e c2 25 bc 19 bf 9a bd 45 a3 43 bd
       -0.0422309 -0.010117112 -0.0755598 -0.047763128
0001c0 08 8d ab 3c 85 9e 12 bf e9 10 6e 3d 78 55 e3 bd
       0.020941272 -0.5727313 0.058121596 -0.11100286
0001d0 ec c9 7c bd 40 97 cf bd 94 40 d4 bc 16 38 fc bd
       -0.061716005 -0.101362705 -0.0259097 -0.12315385
0001e0 2a ca 58 be d2 f2 0d be 02 56 9d be 00 fb 7e 3e
       -0.2117087 -0.1386216 -0.3072968 0.24900436
0001f0 b0 74 37 bf 0a ef ee bd ca 60 b2 be 8a a1 c9 bd
       -0.71662426 -0.11666687 -0.3483947 -0.09845264
000200 bd cb c3 3d 96 d4 2a 3d 02 6b 59 3e 4c 7a 89 3e
       0.09560344 0.041706644 0.21232226 0.26851118
000210 16 d9 cb bd 9f 5b 82 be 6e a3 57 be 2b 11 0a be
       -0.09953515 -0.25460526 -0.21058437 -0.13483112
000220 6b 32 a4 3d 82 ab 1a 3b 98 f9 7b be 42 43 3d bd
       0.08017429 0.0023600762 -0.24606931 -0.04620672
000230 c9 d2 d4 bd 2e be f2 be 1a 8b 88 3b 00 b4 3e 3d
       -0.103917666 -0.4741072 0.004166973 0.04655838
000240 fb 5f a5 3e 8e 40 07 be cd a7 3d be 23 eb 9a be
       0.3229979 -0.1320822 -0.18521042 -0.3025752
000250 68 81 20 bf 1d cf b7 be 51 82 16 3e 6b 4f c6 bd
       -0.6269746 -0.35900202 0.1469815 -0.096831165
000260 96 31 4d be dc 1f 0a be 5f 3e 7b be c7 3d 05 be
       -0.20038447 -0.13488716 -0.24535511 -0.13011847
000270 0d c1 85 bd 64 ee bc be e0 14 66 be 38 f1 82 bb
       -0.06530962 -0.36900628 -0.224689 -0.0039960407
000280 8b 9a 51 3e 1d 81 94 bd e1 61 92 bd 9a 31 ac bd
       0.2046911 -0.07251189 -0.07147575 -0.08407898
000290 86 7d 0a 3e 00 6f bc be 39 00 b7 3d 6e 14 e1 bc
       0.13524446 -0.36803436 0.08935589 -0.027475562
0002a0 94 ad 5e ba 6a e4 56 be bc d9 15 3d 37 10 3d bd
       -0.0008494493 -0.2098557 0.0365846 -0.04615804
0002b0 91 81 49 bd 01 ba 44 bd 5c c5 eb bd 66 ef dc be
       -0.04919583 -0.04802895 -0.11512253 -0.43151397
0002c0 13 cb f1 bc 6e ed b1 be d9 e5 b4 be 15 a0 aa 3d
       -0.029515779 -0.34751457 -0.3533161 0.083313145
0002d0 c5 5c 4e be 83 32 90 be ab cd 80 3d b9 5e 61 3c
       -0.20152576 -0.28163537 0.06289228 0.013755494
0002e0 37 42 2b be 1c db 61 bc e1 3d 9c 3c 2a 02 c1 be
       -0.16724478 -0.01378515 0.019072475 -0.37696964
0002f0 67 48 c3 bd 53 4f 69 be d9 5a d5 3c bd 40 16 be
       -0.09535294 -0.22784166 0.026044296 -0.14673133
000300 ea 88 30 bd 66 35 4e 3d c6 fb 98 3d 87 87 41 bd
       -0.04309932 0.050343893 0.07469897 -0.04724839
000310 3a 30 0d bc c6 0b 8f 3d 00 7b 8f 3d cf bc 5e 3c
       -0.008617455 0.069846675 0.07005882 0.01359482
000320 7e 7c a3 3d d9 86 58 3d cd 22 2d 3d 54 4b db bd
       0.079827294 0.052862976 0.042269517 -0.10707727
000330 97 08 a9 3c ee 50 8c bd 0e cd 61 bd 87 f2 a1 bd
       0.020633979 -0.068513736 -0.055127196 -0.079075865
000340 70 bc 0b be 22 b6 2e 3e 76 d8 db bd 3a 19 ed bd
       -0.13646102 0.17061666 -0.10734646 -0.11577077
000350 03 b5 92 bc 51 82 9a 3d 2c 4d 50 bd 85 0f 3d be
       -0.017908579 0.07544387 -0.050854847 -0.18462951
000360 61 bb e1 3c 7a fc 3b 3d ca d7 f7 3d db 9e 13 be
       0.02755517 0.045895077 0.12101705 -0.14416067
000370 46 cd a3 3c 5b 41 5c bd 9d 4f 74 bd 5b 40 76 bc
       0.019995343 -0.053773265 -0.059646238 -0.015029992
000380 23 ef 23 3d ac 90 e4 bc 5c 6e d8 3d 4f 65 3e bc
       0.04002298 -0.027901016 0.105679244 -0.011620834
000390 5b fb 1d bd 56 4b 92 bc ee f2 65 3d b6 ea 83 3d
       -0.03856979 -0.017858189 0.05613988 0.06441252
0003a0 c0 ce 06 bd a4 07 a9 bc 2d 79 01 be 3c d7 79 bd
       -0.032912016 -0.020633526 -0.12643881 -0.06099628
0003b0 07 41 19 be 3f c3 7e 3b d6 6b 97 bd 25 e7 69 3d
       -0.14966212 0.00388737 -0.07393615 0.057105202
0003c0 f8 21 ef bd ce 0d 11 bd 74 bb 0e be 7f 7b 4c bd
       -0.11676401 -0.035413556 -0.13938695 -0.049922463
0003d0 7e c9 fc 3c fb 4c 35 3b f9 87 15 be 7c fc 07 be
       0.030857798 0.0027664292 -0.1460265 -0.13279909
0003e0 a7 a6 c9 bd 78 c6 a4 bd fe 88 68 bd d1 ec c6 3d
       -0.098462395 -0.080456674 -0.05677127 0.09713138
0003f0 49 2f 7c bd cc e2 92 bc 30 61 ab 3d af 4d ff bd
       -0.061568532 -0.01793041 0.083681464 -0.12465989

fc2.bias f4 [32]
000000 ff 50 07 be ae 1e 0d 3f de aa 51 3f 4a 6b b4 3c
       -0.13214491 0.5512494 0.8190135 0.022023816
000010 f4 2d db be ce 76 e8 3c d2 3f dc 3e 2b 7e 3f 3f
       -0.42808497 0.028376963 0.4301744 0.7480189
000020 b0 88 19 3f a5 17 8d bd 42 c0 c5 bd ea d5 67 be
       0.59974194 -0.068892755 -0.09655811 -0.22640195
000030 38 a5 47 3f c8 dc 0c be 7e 30 b6 3e 9e 10 b4 3e
       0.7798648 -0.13756096 0.35583872 0.35168928
000040 f9 7a 7a 3d 8e 05 e1 3e 93 61 ac bd 7f a7 1d 3f
       0.061152432 0.4394955 -0.08417048 0.61583704
000050 fe 49 d1 3e ff 80 89 3e 7e d7 eb 3e a2 c3 c5 3e
       0.40876764 0.2685623 0.46062845 0.38625818
000060 e6 9d 6d 3d 03 52 ce 3e d0 cb 89 3e 2b 46 05 3f
       0.05801191 0.40296945 0.2691331 0.5206019
000070 33 b1 0f be d2 2c b1 be 2f 10 bf be ee 35 19 3f
       -0.1403244 -0.34604508 -0.37317035 0.59847915

fc3.weight f4 [4, 32]
000000 92 35 84 3d 94 b8 29 3e 58 6b 92 3e 5d 8a 3a be
       0.0645553 0.16574317 0.28597522 -0.18216844
000010 5e 76 45 be 9a 44 16 be 8e e2 61 3e f7 52 6d 3e
       -0.19283435 -0.14674607 0.2205908 0.2317618
000020 1c 31 02 3e e0 fd 79 bd 44 e3 cb bd 4b 3d 58 be
       0.12714046 -0.06103313 -0.09955457 -0.21117131
000030 87 2a 6b 3e 2d d5 88 3d b0 0d 3a 3e 5b 15 8b 3e
       0.22965442 0.06681285 0.18169284 0.2716473
000040 3d 0b 14 be 7b f2 b4 3c dd 14 f7 3c 31 2e 88 3e
       -0.14457412 0.02208828 0.030161316 0.2659774
000050 c0 70 1a 3e ee e5 90 3d e4 69 07 3e ed 2f ad 3d
       0.15082073 0.070751056 0.13223988 0.08456407
000060 b7 10 f6 3d e5 5d 46 3b 26 5b 1c 3e b5 0c 38 3e
       0.12014907 0.0030268368 0.15269145 0.17973597
000070 c9 97 5c 3e a9 76 01 3d e5 b3 39 be 00 1a 88 3d
       0.21542276 0.031607304 -0.1813503 0.06645584
000080 ab f1 88 bc b8 03 9b 3d 79 c5 90 3e 8d 2e 0a be
       -0.016716799 0.07569069 0.2827566 -0.1349432
000090 e2 f0 e8 bd e4 96 ca bb 3f 0c 2e 3e 46 ef 66 3e
       -0.1137407 -0.0061825383 0.16996859 0.22552213
0000a0 c5 cb dc 3d 11 c8 00 3e 73 45 18 3e 32 38 26 be
       0.107810535 0.1257632 0.14870243 -0.16232374
0000b0 b7 2a 6a 3e 14 9b 68 3c eb e0 d4 3d cb b7 62 3e
       0.22867857 0.01419713 0.10394462 0.22140424
0000c0 10 8c 2d 3e 8a 63 26 bd f9 a8 1c 3d 89 8c 51 3e
       0.16947961 -0.04062227 0.038247082 0.20463766
0000d0 84 45 2f 3e d6 9d 77 3d 04 29 05 3e 7f a1 02 3e
       0.17116362 0.06045326 0.13003927 0.12756918
0000e0 11 06 1f 3e 88 3a 06 3e 78 65 16 3e 75 3e 4c 3e
       0.15529658 0.13108265 0.14687145 0.199457
0000f0 fc ab ab 3e 5e 64 35 be 91 ee c4 3d a9 9b 07 3e
       0.3352965 -0.17714068 0.096158154 0.13242973
000100 4d b4 04 3e 43 c3 2e 3e 3e 2d 46 3e 43 47 7c bd
       0.12959404 0.17066674 0.19353196 -0.061591398
000110 67 63 69 bd cc 29 3d bd 0a 56 1e 3e da 7f 7b 3e
       -0.056979563 -0.04618244 0.15462509 0.2456049
000120 24 f0 01 3e a7 a3 3e 3d 52 55 b6 3d ad 6e 80 be
       0.12689263 0.04654279 0.08902992 -0.2508444
000130 e2 ea 8e 3e 84 59 be 3d e4 95 ff 3d be 01 49 3e
       0.27913576 0.092944175 0.12479761 0.19629571
000140 8d 09 7a be fe ef 77 3c f2 d5 12 be e3 f0 0c 3e
       -0.24417706 0.015132902 -0.14339426 0.13763766
000150 fd 80 8d 3d 9f 7c 89 3d c3 6a 43 3e 7a c8 e0 3d
       0.06909368 0.06713223 0.19083695 0.10975738
000160 35 af 61 3d 56 99 a2 3c 3f 74 97 3d 89 ba 0f 3e
       0.05509873 0.019848507 0.07395219 0.14036001
000170 86 fc 8a 3d c6 84 5a bd 0d b0 a7 bc 83 ec 8f 3e
       0.06786446 -0.05334928 -0.02046969 0.28110132
000180 1f ea 2e bd d2 71 28 3d 46 54 98 3e e2 5c 7f bd
       -0.042703744 0.041124173 0.29751796 -0.06234444
000190 9f d4 08 be 6c 58 a6 3d b0 88 12 3e c0 84 6c 3e
       -0.13362359 0.08122334 0.14309955 0.23097515
0001a0 9c 76 31 3e d0 31 ca bd 85 85 51 3e d2 ea b8 bd
       0.17330402 -0.09872782 0.2046109 -0.090291634
0001b0 fc 8a 74 3e 2c 33 de bd 78 01 e3 3c db 8c e6 3d
       0.23881143 -0.10849604 0.027710661 0.11257335
0001c0 bf 3a 8b be 50 31 f6 3d f2 13 00 3e 5d ad 84 3e
       -0.27193257 0.12021124 0.12507609 0.25913516
0001d0 3f 37 1b 3e 8c 79 c0 3a b5 70 0d 3e df 9d b2 3d
       0.15157793 0.0014684661 0.13812526 0.08721518
0001e0 af 3a 42 3e e9 31 08 3e 41 bf 0f 3e de 2f af 3d
       0.18967699 0.13300289 0.14037801 0.08554052
0001f0 23 45 a2 3e 98 80 89 be 7e ae d3 3d 7d 09 ba 3d
       0.31693372 -0.26855922 0.10336016 0.09083841

fc3.bias f4 [4]
000000 34 49 3f 3f 97 04 28 3f 83 d5 3b 3f c1 5b 58 3f
       0.74721074 0.65632004 0.7337267 0.84515005
